test points sampled
ModuleList(
  (0): GSE3Res(
    (GBN): ModuleDict(
      (0): VNLinearAndLeakyReLU(
        (linear): VNLinear(
          (map_to_feat): Linear(in_features=16, out_features=16, bias=False)
        )
        (leaky_relu): VNLeakyReLU(
          (map_to_dir): Linear(in_features=16, out_features=16, bias=False)
        )
      )
      (1): VNLinearAndLeakyReLU(
        (linear): VNLinear(
          (map_to_feat): Linear(in_features=16, out_features=16, bias=False)
        )
        (leaky_relu): VNLeakyReLU(
          (map_to_dir): Linear(in_features=16, out_features=16, bias=False)
        )
      )
      (2): VNLinearAndLeakyReLU(
        (linear): VNLinear(
          (map_to_feat): Linear(in_features=16, out_features=16, bias=False)
        )
        (leaky_relu): VNLeakyReLU(
          (map_to_dir): Linear(in_features=16, out_features=16, bias=False)
        )
      )
    )
    (GLNR): ModuleDict(
      (0): VNLinear(
        (map_to_feat): Linear(in_features=16, out_features=16, bias=False)
      )
      (1): VNLinear(
        (map_to_feat): Linear(in_features=16, out_features=16, bias=False)
      )
      (2): VNLinear(
        (map_to_feat): Linear(in_features=16, out_features=16, bias=False)
      )
    )
    (GMAB): ModuleDict(
      (v): GConvSE3Partial(structure=[(16, 0), (16, 1), (16, 2)])
      (k): GConvSE3Partial(structure=[(16, 1)])
      (q): GConvSE3Partial(structure=[(16, 1)])
      (attn): GMABSE3(n_heads=16, structure=[(16, 0), (16, 1), (16, 2)])
    )
    (cat): GCat(structure=[(16, 0), (17, 1), (16, 2)])
    (project): G1x1SE3(structure=[(16, 0), (16, 1), (16, 2)])
  )
  (1): GNormTFN()
  (2): GSE3Res(
    (GBN): ModuleDict(
      (0): VNLinearAndLeakyReLU(
        (linear): VNLinear(
          (map_to_feat): Linear(in_features=16, out_features=16, bias=False)
        )
        (leaky_relu): VNLeakyReLU(
          (map_to_dir): Linear(in_features=16, out_features=16, bias=False)
        )
      )
      (1): VNLinearAndLeakyReLU(
        (linear): VNLinear(
          (map_to_feat): Linear(in_features=16, out_features=16, bias=False)
        )
        (leaky_relu): VNLeakyReLU(
          (map_to_dir): Linear(in_features=16, out_features=16, bias=False)
        )
      )
      (2): VNLinearAndLeakyReLU(
        (linear): VNLinear(
          (map_to_feat): Linear(in_features=16, out_features=16, bias=False)
        )
        (leaky_relu): VNLeakyReLU(
          (map_to_dir): Linear(in_features=16, out_features=16, bias=False)
        )
      )
    )
    (GLNR): ModuleDict(
      (0): VNLinear(
        (map_to_feat): Linear(in_features=16, out_features=16, bias=False)
      )
      (1): VNLinear(
        (map_to_feat): Linear(in_features=16, out_features=16, bias=False)
      )
      (2): VNLinear(
        (map_to_feat): Linear(in_features=16, out_features=16, bias=False)
      )
    )
    (GMAB): ModuleDict(
      (v): GConvSE3Partial(structure=[(16, 0), (16, 1), (16, 2)])
      (k): GConvSE3Partial(structure=[(16, 0), (16, 1), (16, 2)])
      (q): GConvSE3Partial(structure=[(16, 0), (16, 1), (16, 2)])
      (attn): GMABSE3(n_heads=16, structure=[(16, 0), (16, 1), (16, 2)])
    )
    (cat): GCat(structure=[(32, 0), (32, 1), (32, 2)])
    (project): G1x1SE3(structure=[(16, 0), (16, 1), (16, 2)])
  )
  (3): GNormTFN()
  (4): GSE3Res(
    (GBN): ModuleDict(
      (0): VNLinearAndLeakyReLU(
        (linear): VNLinear(
          (map_to_feat): Linear(in_features=16, out_features=16, bias=False)
        )
        (leaky_relu): VNLeakyReLU(
          (map_to_dir): Linear(in_features=16, out_features=16, bias=False)
        )
      )
      (1): VNLinearAndLeakyReLU(
        (linear): VNLinear(
          (map_to_feat): Linear(in_features=16, out_features=16, bias=False)
        )
        (leaky_relu): VNLeakyReLU(
          (map_to_dir): Linear(in_features=16, out_features=16, bias=False)
        )
      )
      (2): VNLinearAndLeakyReLU(
        (linear): VNLinear(
          (map_to_feat): Linear(in_features=16, out_features=16, bias=False)
        )
        (leaky_relu): VNLeakyReLU(
          (map_to_dir): Linear(in_features=16, out_features=16, bias=False)
        )
      )
    )
    (GLNR): ModuleDict(
      (0): VNLinear(
        (map_to_feat): Linear(in_features=16, out_features=16, bias=False)
      )
      (1): VNLinear(
        (map_to_feat): Linear(in_features=16, out_features=16, bias=False)
      )
      (2): VNLinear(
        (map_to_feat): Linear(in_features=16, out_features=16, bias=False)
      )
    )
    (GMAB): ModuleDict(
      (v): GConvSE3Partial(structure=[(16, 0), (16, 1), (16, 2)])
      (k): GConvSE3Partial(structure=[(16, 0), (16, 1), (16, 2)])
      (q): GConvSE3Partial(structure=[(16, 0), (16, 1), (16, 2)])
      (attn): GMABSE3(n_heads=16, structure=[(16, 0), (16, 1), (16, 2)])
    )
    (cat): GCat(structure=[(32, 0), (32, 1), (32, 2)])
    (project): G1x1SE3(structure=[(16, 0), (16, 1), (16, 2)])
  )
  (5): GNormTFN()
  (6): GSE3Res(
    (GBN): ModuleDict(
      (0): VNLinearAndLeakyReLU(
        (linear): VNLinear(
          (map_to_feat): Linear(in_features=16, out_features=16, bias=False)
        )
        (leaky_relu): VNLeakyReLU(
          (map_to_dir): Linear(in_features=16, out_features=16, bias=False)
        )
      )
      (1): VNLinearAndLeakyReLU(
        (linear): VNLinear(
          (map_to_feat): Linear(in_features=16, out_features=16, bias=False)
        )
        (leaky_relu): VNLeakyReLU(
          (map_to_dir): Linear(in_features=16, out_features=16, bias=False)
        )
      )
      (2): VNLinearAndLeakyReLU(
        (linear): VNLinear(
          (map_to_feat): Linear(in_features=16, out_features=16, bias=False)
        )
        (leaky_relu): VNLeakyReLU(
          (map_to_dir): Linear(in_features=16, out_features=16, bias=False)
        )
      )
    )
    (GLNR): ModuleDict(
      (0): VNLinear(
        (map_to_feat): Linear(in_features=16, out_features=16, bias=False)
      )
      (1): VNLinear(
        (map_to_feat): Linear(in_features=16, out_features=16, bias=False)
      )
      (2): VNLinear(
        (map_to_feat): Linear(in_features=16, out_features=16, bias=False)
      )
    )
    (GMAB): ModuleDict(
      (v): GConvSE3Partial(structure=[(16, 0), (16, 1), (16, 2)])
      (k): GConvSE3Partial(structure=[(16, 0), (16, 1), (16, 2)])
      (q): GConvSE3Partial(structure=[(16, 0), (16, 1), (16, 2)])
      (attn): GMABSE3(n_heads=16, structure=[(16, 0), (16, 1), (16, 2)])
    )
    (cat): GCat(structure=[(32, 0), (32, 1), (32, 2)])
    (project): G1x1SE3(structure=[(16, 0), (16, 1), (16, 2)])
  )
  (7): GNormTFN()
  (8): GSE3Res(
    (GBN): ModuleDict(
      (0): VNLinearAndLeakyReLU(
        (linear): VNLinear(
          (map_to_feat): Linear(in_features=16, out_features=16, bias=False)
        )
        (leaky_relu): VNLeakyReLU(
          (map_to_dir): Linear(in_features=16, out_features=16, bias=False)
        )
      )
      (1): VNLinearAndLeakyReLU(
        (linear): VNLinear(
          (map_to_feat): Linear(in_features=16, out_features=16, bias=False)
        )
        (leaky_relu): VNLeakyReLU(
          (map_to_dir): Linear(in_features=16, out_features=16, bias=False)
        )
      )
      (2): VNLinearAndLeakyReLU(
        (linear): VNLinear(
          (map_to_feat): Linear(in_features=16, out_features=16, bias=False)
        )
        (leaky_relu): VNLeakyReLU(
          (map_to_dir): Linear(in_features=16, out_features=16, bias=False)
        )
      )
    )
    (GLNR): ModuleDict(
      (0): VNLinear(
        (map_to_feat): Linear(in_features=16, out_features=16, bias=False)
      )
      (1): VNLinear(
        (map_to_feat): Linear(in_features=16, out_features=16, bias=False)
      )
      (2): VNLinear(
        (map_to_feat): Linear(in_features=16, out_features=16, bias=False)
      )
    )
    (GMAB): ModuleDict(
      (v): GConvSE3Partial(structure=[(16, 0), (16, 1), (16, 2)])
      (k): GConvSE3Partial(structure=[(16, 0), (16, 1), (16, 2)])
      (q): GConvSE3Partial(structure=[(16, 0), (16, 1), (16, 2)])
      (attn): GMABSE3(n_heads=16, structure=[(16, 0), (16, 1), (16, 2)])
    )
    (cat): GCat(structure=[(32, 0), (32, 1), (32, 2)])
    (project): G1x1SE3(structure=[(16, 0), (16, 1), (16, 2)])
  )
  (9): GNormTFN()
  (10): GSE3Res(
    (GBN): ModuleDict(
      (0): VNLinearAndLeakyReLU(
        (linear): VNLinear(
          (map_to_feat): Linear(in_features=64, out_features=64, bias=False)
        )
        (leaky_relu): VNLeakyReLU(
          (map_to_dir): Linear(in_features=64, out_features=64, bias=False)
        )
      )
    )
    (GLNR): ModuleDict(
      (0): VNLinear(
        (map_to_feat): Linear(in_features=64, out_features=64, bias=False)
      )
    )
    (GMAB): ModuleDict(
      (v): GConvSE3Partial(structure=[(64, 0)])
      (k): GConvSE3Partial(structure=[(64, 0)])
      (q): GConvSE3Partial(structure=[(64, 0)])
      (attn): GMABSE3(n_heads=16, structure=[(64, 0)])
    )
    (cat): GCat(structure=[(80, 0)])
    (project): AttentiveSelfInteractionSE3(in=[(80, 0)], out=[(64, 0)])
  )
…
